data.pth (torch, 11415 bytes, 6 tensors)

l1.weight f4 [8, 176]
0.214256 -0.06275744 0.4219024 0.09254836 1.0202113 0.37771314 0.0353426 -0.84574807
0.031119486 0.30065206 -0.08764383 0.14588273 -0.57718605 -0.03681788 0.5766827 1.1840607
2.3142388 0.21566033 0.028727157 -0.08485191 0.01797911 -0.31873694 2.3994646 0.36950234
1.5937921 0.51579773 0.8789597 -0.039464284 -0.41100034 0.61292106 0.76504445 0.27053696
-0.6471328 1.2767823 0.3904745 1.5628139 -0.64173853 -0.953074 1.6625875 0.6084689
-0.17579828 -0.99216133 -0.05195192 0.36080754 0.11252013 0.5644455 -0.27669582 0.7324345
1.207746 0.20702918 1.4381582 0.5954673 -0.11269895 1.55624 0.74149746 0.8898655
-0.3213522 -0.0033358054 1.5636345 0.2698549 0.45186928 2.3927042 -0.1588916 -0.038943134
0.2590958 1.1326002 0.93244636 0.33445954 0.20147578 1.1234279 1.1363925 -0.09184972
0.0688613 -2.267263 -1.282691 -0.11801702 0.7786952 0.3816044 -0.096160874 0.9792173
0.97055864 0.7461003 0.62261266 -0.14191303 -1.1606352 -0.06401007 -0.74044263 1.4743012
0.2650373 0.64199907 -0.0037334964 0.94207996 2.0861542 -0.011579363 -0.15228178 1.4873844
0.8599221 -0.20286891 0.8655638 0.01490589 0.48376772 -1.0756834 0.67997086 1.0855823
-0.35704467 0.9030928 1.4255096 0.24558096 0.19524987 -0.73890495 -0.73860717 -0.7391506
-0.7392113 0.030757224 -0.8641518 -0.24028146 0.48631978 1.3889885 0.5790193 0.9825584
1.5705509 0.048230495 -0.98521584 0.775157 -0.7015911 -0.09403035 1.333575 0.15651596
-0.6657169 1.3510474 0.49647832 -0.025472917 0.7912728 -0.20668562 1.1169705 1.1457245
0.43334842 0.71531534 0.3947192 -0.18271707 -0.9126292 -1.3916832 0.2696257 0.32756928
0.5859063 3.1839736 1.0546359 0.13598126 -1.2965473 0.062056147 -0.17291659 -0.033905365
-0.26553348 2.5168579 1.6828753 0.6498129 1.3947382 1.4179931 0.67967695 0.5381146
0.08422658 0.6532023 -0.43407854 0.038063027 0.30800667 -1.0384761 0.11177247 -0.07808005
0.4271601 0.82653874 1.43799 -0.38528568 -1.2378234 0.7900999 0.1333723 -0.009842569
-0.19283405 -0.27570632 0.4976356 -0.65590924 2.2940454 -0.2599091 0.27004692 -0.4846857
0.23730765 -1.3529536 -0.12890698 0.5434498 0.80361956 0.6917651 0.24691448 -0.74335724
-0.3818662 -0.48807544 0.24469203 0.17040262 -0.99450785 1.3037292 -0.5963526 0.8341894
0.5773655 -0.2545042 1.0288641 0.43700224 -0.15627396 -0.5480645 -0.38255453 1.2351261
0.41943488 0.6648433 -0.56604064 -0.60791767 0.05391655 -0.9412234 -0.1653186 0.24063402
-0.17258751 -1.2514288 0.47579113 -0.26212677 -0.46954066 1.9717716 -0.2488305 -0.43581003
-1.0589501 0.076453544 -1.1330906 0.073124364 0.2163151 1.031084 0.76597923 1.5736699
0.085357055 0.15759173 -0.78460884 0.32620832 -0.9431248 -0.5887132 0.75619584 0.36739475
-0.14790653 -0.78985256 -0.5059794 -0.48752567 0.023202626 -0.78489596 -0.784211 -0.15618803
2.2715058 2.7253041 1.428489 0.32617918 0.6408329 0.85481596 -0.15575708 0.21937683
00000000: ed65 5b3e f986 80bd 9703 d83e ff89 bd3d
00000010: 4996 823f 9e63 c13e 67c3 103d f282 58bf
00000020: 4bee fe3c 11ef 993e 9c7e b3bd 4862 153e
00000030: 77c2 13bf 58ce 16bd 7aa1 133f 4d8f 973f
00000040: 7d1c 1440 10d6 5c3e 3755 eb3c d7c6 adbd
00000050: ed48 933c 7d31 a3be d490 1940 692f bd3e
00000060: 6101 cc3f 520b 043f 8103 613f 4da5 21bd
00000070: a36e d2be 65e8 1c3f f4d9 433f d283 8a3e
00000080: 7faa 25bf 9a6d a33f 46ec c73e 490a c83f
00000090: fa48 24bf a8fc 73bf abcf d43f 9ec4 1b3f
000000a0: 7704 34be 49fe 7dbf 89cb 54bd c4bb b83e
000000b0: f470 e63d 807f 103f 13ab 8dbe d480 3b3f
000000c0: 6c97 9a3f 75ff 533e 9115 b83f 8c70 183f
000000d0: b5ce e6bd df32 c73f c7d2 3d3f 3ace 633f
000000e0: 4788 a4be 879d 5abb 2d25 c83f 6c2a 8a3e
000000f0: 695b e73e 1122 1940 7bb4 22be d682 1fbd
00000100: 34a8 843e 0bf9 903f ceb4 6e3f 483e ab3e
00000110: ab4f 4e3e 7ccc 8f3f 4f75 913f b51b bcbd
00000120: 2707 8d3d d61a 11c0 382f a4bf e8b2 f1bd
00000130: 9258 473f a761 c33e feef c4bd fcad 7a3f
00000140: 8876 783f 6e00 3f3f 8b63 1f3f a651 11be
00000150: b28f 94bf b617 83bd a68d 3dbf e7b5 bc3f
00000160: f8b2 873e 0d5a 243f adad 74bb 272c 713f
00000170: 8d83 0540 5eb7 3dbc c1ef 1bbe 9d62 be3f
00000180: db23 5c3f debc 4fbe 9795 5d3f d637 743c
00000190: 67b0 f73e feaf 89bf 9212 2e3f 5cf4 8a3f
000001a0: 8fce b6be 1731 673f 1977 b63f 9379 7b3e
000001b0: 95ef 473e e028 3dbf 5c15 3dbf f938 3dbf
000001c0: f43c 3dbf 93f6 fb3c 0d39 5dbf 580c 76be
000001d0: e8fe f83e 60ca b13f 9c3a 143f f388 7b3f
000001e0: d007 c93f 578d 453d 1b37 7cbf b070 463f
000001f0: 799b 33bf fc92 c0bd 96b2 aa3f b845 203e
00000200: 6c6c 2abf 1fef ac3f 6832 fe3e 94ac d0bc
00000210: db90 4a3f 65a5 53be e4f8 8e3f 1aa7 923f
00000220: d8df dd3e e81e 373f a318 ca3e 2f1a 3bbe
00000230: 11a2 69bf ad22 b2bf 610c 8a3e 29b7 a73e
00000240: f5fd 153f 39c6 4b40 4ffe 863f ac3e 0b3e
00000250: 43f5 a5bf 962e 7e3d 0c11 31be 5ae0 0abd
00000260: 01f4 87be 3314 2140 7568 d73f 235a 263f
00000270: c886 b23f cc80 b53f 4fff 2d3f e1c1 093f
00000280: fc7e ac3d 4438 273f 8b3f debe fae7 1b3d
00000290: 0db3 9d3e c9ec 84bf f7e8 e43d 6fe8 9fbd
000002a0: bbb4 da3e 0b98 533f 0e10 b83f 2a44 c5be
000002b0: ff70 9ebf fd43 4a3f c092 083e ba42 21bc
000002c0: 4a76 45be 6129 8dbe 18ca fe3e abe9 27bf
000002d0: a4d1 1240 ce12 85be 9743 8a3e b928 f8be
000002e0: c700 733e 952d adbf 3100 04be 871f 0b3f
000002f0: 03ba 4d3f 8517 313f 26d7 7c3e a94c 3ebf
00000300: f783 c3be 06e5 f9be 8c90 7a3e 067e 2e3e
00000310: 1198 7ebf 99e0 a63f 90aa 18bf 708d 553f
00000320: 3ace 133f 604e 82be d2b1 833f c2be df3e
00000330: 4806 20be f44d 0cbf 30de c3be 9d18 9e3f
00000340: 2bc0 d63e 2c33 2a3f 0ae8 10bf 7ea0 1bbf
00000350: 9ad7 5c3d 04f4 70bf 4749 29be c468 763e
00000360: c8ba 30be d22e a0bf e59a f33e 7b35 86be
00000370: a267 f0be 0363 fc3f 6ccd 7ebe 7e22 dfbe
00000380: ad8b 87bf ad93 9c3d 1d09 91bf 3ac2 953d
00000390: b581 5d3e 8ffa 833f 3717 443f 046e c93f
000003a0: aecf ae3d ba5f 213e 20dc 48bf c704 a73e
000003b0: a070 71bf e9b5 16bf 0d96 413f 2a1b bc3e
000003c0: cf74 17be c733 4abf de87 01bf f79c f9be
000003d0: 6f13 be3c f1ee 48bf 0dc2 48bf c1ef 1fbe
000003e0: 5a60 1140 626b 2e40 bad8 b63f f500 a73e
000003f0: a00d 243f 38d5 5a3f c97e 1fbe 52a4 603e

l1.bias f4 [8]
0.7065169 0.7678874 0.43805507 1.2530237 0.8691975 1.1195667 0.8367373 0.81046015
00000000: 4bde 343f 4594 443f c148 e03e 1563 a03f
00000010: ba83 5e3f f64d 8f3f 6a34 563f 517a 4f3f

l2.weight f4 [8, 8]
0.3312084 1.3757914 -1.4823146 -0.12708436 -0.5972827 0.78628486 1.9069009 -0.25354183
-0.02651315 -0.3982681 -0.6974319 0.029945198 0.5122964 -0.21583502 0.9058321 -0.231648
-1.5403553 -0.70587707 -1.7038537 1.8573593 1.6713055 0.78461534 -0.09247403 1.4559103
1.993184 -2.0072114 0.45904648 1.1789331 0.12686832 2.0301542 0.081964985 -1.4322457
1.9560806 0.56658036 1.8177856 0.11788924 1.7582009 -1.1588429 0.9630387 1.1835635
0.42849764 0.0014339733 -0.3442687 0.3909774 -1.5699085 1.5489814 1.6438427 1.7976648
0.98447186 1.774636 1.6245612 0.96950465 1.1932125 -0.7761509 -0.4003002 -0.8438428
-0.9834281 1.983396 -1.0146695 1.6079502 1.2986646 1.0547329 -1.3414009 -1.2286496
00000000: 2694 a93e ef19 b03f 7cbc bdbf 6722 02be
00000010: 85e7 18bf f749 493f 5415 f43f 3cd0 81be
00000020: 1b32 d9bc cce9 cbbe e68a 32bf a24f f53c
00000030: db25 033f db03 5dbe 9de4 673f 2235 6dbe
00000040: 5d2a c5bf 5cb4 34bf e117 dabf f3bd ed3f
00000050: 57ed d53f 8ddc 483f 0663 bdbd 455b ba3f
00000060: a720 ff3f 2776 00c0 2408 eb3e 48e7 963f
00000070: c5e9 013e 0cee 0140 42dd a73d d453 b7bf
00000080: d960 fa3f 690b 113f 33ad e83f ea6f f13d
00000090: ba0c e13f f754 94bf b489 763f 027f 973f
000000a0: 0b64 db3e 29f4 bb3a fd43 b0be 312e c83e
000000b0: c3f2 c8bf 0645 c63f 7069 d23f e119 e63f
000000c0: 5906 7c3f 4627 e33f 9ff1 cf3f 7531 783f
000000d0: 30bb 983f d3b1 46bf 26f4 ccbe 1506 58bf
000000e0: f2c1 7bbf ecdf fd3f b1e0 81bf 50d1 cd3f
000000f0: a43a a63f 7d01 873f 06b3 abbf 6444 9dbf

l2.bias f4 [8]
0.33565155 0.20922795 0.46825534 0.48467052 0.31664497 0.8388908 -0.1533146 0.7413726
00000000: 85da ab3e da3f 563e 2abf ef3e bc26 f83e
00000010: 4a1f a23e 8cc1 563f 81fe 1cbe 98ca 3d3f

l3.weight f4 [26, 8]
-4.7000017 -3.6268358 -0.24897663 -2.236829 0.61075705 -1.9044538 0.6882808 0.28021038
1.2054294 -0.52569824 -0.38502124 -3.6600742 -1.6038837 0.9864728 -3.5499642 -0.2730835
0.59437317 -0.9230229 0.68995416 -0.37581187 -3.0082946 0.93376404 -2.247723 -3.5876856
-1.4599504 -3.146291 -3.7688355 0.301624 -0.3559622 -0.8251311 0.5321161 0.38748837
0.9396742 1.9865488 -3.409089 1.0348452 -0.39648566 0.23402502 -3.5021813 -4.566667
0.7400855 -1.8601648 -4.7669864 0.21002308 -0.29189062 0.4207807 -1.037592 -0.26681867
-0.31527516 2.657854 -0.93131566 1.2035272 -0.71122646 -1.3645709 -0.8035727 -0.12412854
-0.1921533 0.35491323 0.3846745 -0.49581096 0.061438452 0.16132675 -2.0246954 -1.2016268
-0.19500777 -5.3493013 -1.8867399 -2.361135 -0.2696925 0.8321972 0.026005462 0.3968836
-0.7812313 -1.3106606 0.36328587 -3.415529 -1.0874177 -3.0479844 0.52556187 1.1714485
0.4882945 1.9416862 -1.7588942 -4.261933 0.30265787 -0.858314 -0.23886152 -0.44133976
-3.970101 -2.6848822 -0.1868454 0.8431351 -0.6222882 -2.4601307 0.13704018 0.23302886
0.09637904 -2.8391273 -0.73177344 -0.3097278 -1.3377789 -1.5932245 0.18419306 0.9878756
-0.30435354 -3.52744 -3.1111941 -3.3241143 0.14652835 -2.0788643 0.49041057 1.0130471
-2.1610346 -2.3792262 -3.2562232 -1.5832441 1.3693773 -0.60145766 0.41512105 -2.465665
-1.5307553 -0.3235873 0.1349506 0.06880129 0.058534052 0.16666064 -0.9709568 -1.1249368
0.7619521 -0.1142147 -4.6804795 -2.0287733 0.66399026 0.7556206 -1.1176122 -3.970124
-2.3917325 1.5027317 0.83315235 -1.27655 -0.4491441 -1.9757597 -0.16767861 0.16143665
-1.279266 -0.46707585 0.7756422 -0.0027350965 -1.1724862 0.101808965 -2.0131614 0.3673021
0.25823998 -0.58963835 -1.2597703 1.3536135 -1.336833 0.3365965 -6.1138077 -0.8933537
-1.1125997 -0.24522513 -0.52257836 0.5111152 0.29629385 -0.070079066 -0.9193718 -1.6923106
-1.149318 -0.45879325 0.4413534 0.53722155 -2.1395552 -0.10836061 -1.197147 0.35745102
0.7931807 0.080007754 -1.3209195 -0.3478554 -2.1217272 0.29356593 -0.77887243 0.23034878
-1.6667162 2.068017 -1.9528445 0.34879863 0.48632714 -2.7622113 0.26522478 -0.65622425
-0.012075041 0.16070738 0.3430954 -0.8793879 -0.036302164 -0.23813748 -0.9363741 -0.32316333
0.12057273 -0.7328828 -0.42333537 -2.0779114 0.2744939 0.16695386 0.15009986 -4.034338
00000000: 6a66 96c0 141e 68c0 bbf3 7ebe 3528 0fc0
00000010: 935a 1c3f 24c5 f3bf 2c33 303f bc77 8f3e
00000020: 834b 9a3f 2994 06bf 8121 c5be a83e 6ac0
00000030: 104c cdbf 7b89 7c3f 9d32 63c0 9ad1 8bbe
00000040: d728 183f 3b4b 6cbf d6a0 303f 6a6a c0be
00000050: e687 40c0 290b 6f3f b2da 0fc0 a49c 65c0
00000060: a8df babf d55c 49c0 9a34 71c0 766e 9a3e
00000070: ad40 b6be cb3b 53bf c338 083f e064 c63e
00000080: 7d8e 703f 3b47 fe3f 842e 5ac0 cf75 843f
00000090: 2b00 cbbe 41a4 6f3e bd23 60c0 2322 92c0
000000a0: 3e76 3d3f e119 eebf 278b 98c0 4a10 573e
000000b0: b072 95be 9170 d73e d1cf 84bf 759c 88be
000000c0: bf6b a1be 481a 2a40 b46a 6ebf 2e0d 9a3f
000000d0: f012 36bf 42aa aebf f1b6 4dbf 1b37 febd
000000e0: d6c3 44be 30b7 b53e 0ef4 c43e efda fdbe
000000f0: e3a6 7b3d d732 253e 9c94 01c0 e8ce 99bf
00000100: 1eb0 47be 7a2d abc0 b180 f1bf d61c 17c0
00000110: 2315 8abe e00a 553f 6809 d53c 5434 cb3e
00000120: c6fe 47bf bac3 a7bf 9b00 ba3e 0798 5ac0
00000130: 8130 8bbf 2d12 43c0 398b 063f 06f2 953f
00000140: bd01 fa3e 2c89 f83f 7223 e1bf c161 88c0
00000150: f9f5 9a3e 77ba 5bbf 1d98 74be 49f7 e1be
00000160: 2316 7ec0 1cd5 2bc0 6754 3fbe b4d7 573f
00000170: 484e 1fbf c872 1dc0 4354 0c3e 1e9f 6e3e
00000180: 6062 c53d 43b4 35c0 8155 3bbf a494 9ebe
00000190: 573c abbf c8ee cbbf 1b9d 3c3e 6ae5 7c3f
000001a0: 3ad4 9bbe 94c1 61c0 ce1d 47c0 4abe 54c0
000001b0: 870b 163e 1d0c 05c0 1817 fb3e 87ab 813f
000001c0: 644e 0ac0 3e45 18c0 f665 50c0 bea7 cabf
000001d0: c147 af3f 21f9 19bf bf8a d43e 75cd 1dc0
000001e0: caef c3bf 3cad a5be 7d30 0a3e b1e7 8c3d
000001f0: 67c1 6f3d 16a9 2a3e a090 78bf eefd 8fbf
00000200: 4b0f 433f 66e9 e9bd 7dc6 95c0 6cd7 01c0
00000210: 44fb 293f 5a70 413f eb0d 8fbf 8316 7ec0
00000220: 2512 19c0 8359 c03f 7949 553f fe65 a3bf
00000230: 37f6 e5be b2e5 fcbf f1b3 2bbe a64f 253e
00000240: fdbe a3bf 9124 efbe 7d90 463f 4e3f 33bb
00000250: 0714 96bf 3881 d03d a3d7 00c0 050f bc3e
00000260: 0838 843e 8af2 16bf 2740 a1bf 3543 ad3f
00000270: 581d abbf 6056 ac3e 50a4 c3c0 d4b2 64bf
00000280: ab69 8ebf 4c1c 7bbe b2c7 05bf 72d8 023f
00000290: d4b3 973e 9d85 8fbd f35b 6bbf a29d d8bf
000002a0: da1c 93bf f3e6 eabe 13f9 e13e 5a87 093f
000002b0: 79ee 08c0 2bec ddbd 1d3c 99bf d203 b73e
000002c0: e40d 4b3f 1bdb a33d e413 a9bf 1a1a b2be
000002d0: 61ca 07c0 464e 963e 2f64 47bf 8de0 6b3e
000002e0: f556 d5bf 645a 0440 cff6 f9bf bc95 b23e
000002f0: dfff f83e 12c8 30c0 8bcb 873e 50fe 27bf
00000300: 65d6 45bc 7a90 243e 33aa af3e 911f 61bf
00000310: 94b1 14bd 50da 73be 37b6 6fbf aa75 a5be
00000320: d6ee f63d 359e 3bbf 6abf d8be 80fc 04c0
00000330: 778a 8c3e f4f5 2a3e c7b3 193e 4c19 81c0

l3.bias f4 [26]
0.047767524 0.12239958 -0.59791845 0.04934358 0.108175 0.13746528 -0.6308097 0.40855256
0.29627004 -0.24828207 0.25897008 -0.23424985 -0.5737241 0.44265503 0.14402348 -0.2105532
0.6151844 -0.040181126 -0.26329526 -0.31373277 -0.648586 0.019272657 -0.4961808 -0.05361873
-0.4015159 -0.47753936
00000000: e1a7 433d a2ac fa3d 2f11 19bf 7e1c 4a3d
00000010: db8a dd3d b3c3 0c3e bf7c 21bf cd2d d13e
00000020: b5b0 973e a83d 7ebe ba97 843e 31df 6fbe
00000030: 95df 12bf aea3 e23e e47a 133e 429b 57be
00000040: ba7c 1d3f f794 24bd a3ce 86be 95a1 a0be
00000050: bb09 26bf b1e1 9d3c 690b febe 509f 5bbd
00000060: 7e93 cdbe 0a80 f4be
